biLSTM_POStagger/data/w.model (torch_old, 984554 bytes, 12 tensors)

word_embeddings.weight f4 [166, 128]
-1.5255959 -0.7502318 -0.6539809 -1.6094848 -0.10016718 -0.6091889 -0.97977227 -1.6090963
-0.7121446 0.303722 -0.7773143 -0.25145525 -0.22227049 1.6871134 0.22842517 0.4676355
-0.6969724 -1.1607615 0.6995424 0.19908163 0.8656924 0.24440393 -0.66291136 0.80730826
1.1016806 -0.17593604 -2.2455578 -1.446458 0.061155282 -0.6177445 -0.79806983 -0.13162321
1.8793458 -0.07213178 0.1577706 -0.7734549 0.1990565 0.045702778 0.15295692 -0.4756788
-0.11101983 0.29273525 -0.15784515 -0.02878714 2.357111 -1.0373387 1.5747981 -0.6298472
-0.9273917 0.5451415 0.06628026 -0.43704012 0.7626006 0.44151092 1.1651385 2.0153918
0.13741246 0.9386447 -0.18600109 -0.6446393 1.5392458 -0.8695876 -3.3311536 -0.74787223
-0.025502462 -1.0233306 -0.59618515 -1.0055307 -0.2106063 -0.0075475276 1.6734272 0.010342831
-0.70395666 -0.1852658 -0.9962351 -0.83125526 -0.46102202 -0.56008244 0.39557618 -0.9822771
-0.5064866 0.099775404 -0.6539734 0.7316937 -1.4343859 -0.50081307 0.17163314 -0.15999313
0.2546335 -0.5019573 -1.0412 0.7322672 -1.0483401 -0.4708772 0.29113635 1.9907043
0.6614453 1.1899205 0.8165339 -0.9135236 1.3851457 -0.81384623 -0.92757654 1.1119633
1.3352057 0.6042736 -0.10344208 -0.15121692 -2.102083 -0.62002194 -1.478231 -1.1334175
0.8737963 -0.5602594 1.2857845 0.81682384 0.2053041 0.30510718 0.535687 -0.431185
2.5581384 -0.23336388 -0.01347213 1.8606348 -1.9804063 1.7985829 0.10181159 0.340006
0.7121997 -1.7775553 0.3595986 1.2050439 -0.30022702 -1.7622098 0.6340983 -0.8022852
-1.6122371 -1.878695 0.5469936 0.6646812 2.2946167 0.6777684 1.7099518 -1.7992041
-1.3607279 -0.9850289 1.5165898 0.6431133 0.46883184 -0.42331588 0.55216914 -1.5503709
0.51812476 0.108966276 0.271054 1.329012 1.7546628 1.8608537 -0.7099376 2.554586
0.41296697 -0.21709777 -0.8422863 -0.41739267 -0.6260878 -0.9781848 0.87384933 0.9872327
0.31138468 1.5240766 1.2066745 -1.8176472 -0.39894992 -0.95925945 -0.0066117793 -0.07838413
0.8456162 1.1749018 0.5289819 1.6216154 -0.9609967 0.14413679 -0.163198 -0.3549731
1.7201406 -0.3061427 0.24221067 1.3481536 0.10892534 1.1016206 -0.33862212 0.9465234
-0.5692174 0.83976215 1.7868586 -0.19475698 0.5242413 -1.8467246 -2.92131 -0.56299853
-0.5423873 0.8972866 -0.88313335 0.5351037 -1.5479383 -0.17136173 0.73250127 0.06053818
0.9021908 1.0506402 -0.519025 1.35748 0.23520307 1.9174098 1.835737 1.3291336
-0.97084165 1.2536786 1.214011 -0.52620125 0.21651429 -0.5738159 1.4587725 1.7723825
1.6473851 -0.42907125 -0.26902518 -1.435234 1.2430949 1.2759241 0.39416623 0.38746995
-0.07876939 0.3437225 0.94860446 -1.3835648 1.7276936 -2.3623364 -0.9363252 0.2936706
0.21356404 0.941264 1.4652805 -0.5610657 -0.74649835 -0.20435409 -0.22516513 0.00036556218
0.37767428 -0.5770945 -0.572 1.0102496 -0.10340095 -1.176166 -0.09215395 0.5595302
00000000: ba46 c3bf 310f 40bf 4b6b 27bf 9903 cebf
00000010: 7324 cdbd cef3 1bbf 5bd2 7abf def6 cdbf
00000020: 1c4f 36bf 7381 9b3e 12fe 46bf bebe 80be
00000030: e09a 63be 55f3 d73f 4ae8 693e ec6d ef3e
00000040: c96c 32bf d593 94bf 3615 333f 0edc 4b3e
00000050: 049e 5d3f 0645 7a3e 8fb4 29bf c1ab 4e3f
00000060: df03 8d3f 9428 34be 38b7 0fc0 8925 b9bf
00000070: f67d 7a3d 8124 1ebf 4e4e 4cbf 3cc8 06be
00000080: 678e f03f d4b9 93bd 9e8e 213e 2401 46bf
00000090: 78d5 4b3e d632 3b3d bda0 1c3e 2c8c f3be
000000a0: 5d5e e3bd 65e1 953e 29a2 21be 02d3 ebbc
000000b0: e8da 1640 84c7 84bf fc92 c93f ab3d 21bf
000000c0: 8b69 6dbf 658e 0b3f f2bd 873d b9c3 dfbe
000000d0: cb39 433f b80d e23e 4223 953f 2efc 0040
000000e0: dab5 0c3e 054b 703f 1277 3ebe 1507 25bf
000000f0: 0206 c53f 4b9d 5ebf 9f31 55c0 8e74 3fbf
00000100: 8aea d0bc 7ffc 82bf 979f 18bf 3bb5 80bf
00000110: 2ea9 57be 4051 f7bb dd32 d63f fa74 293c
00000120: 8136 34bf 51b6 3dbe 4309 7fbf 25cd 54bf
00000130: 140b ecbe 9061 0fbf f688 ca3e 8376 7bbf
00000140: 1ba9 01bf 0c57 cc3d cd6a 27bf 4750 3b3f
00000150: f599 b7bf 4935 00bf 99c0 2f3e 3dd5 23be
00000160: 525f 823e 4680 00bf 0b46 85bf dd75 3b3f
00000170: 0230 86bf d116 f1be d30f 953e 66cf fe3f
00000180: 7b54 293f 514f 983f 5e08 513f afdc 69bf
00000190: 744c b13f 3a58 50bf a875 6dbf d054 8e3f
000001a0: 05e8 aa3f adb1 1a3f 71d9 d3bd 9cd8 1abe
000001b0: 8788 06c0 c2b9 1ebf ac36 bdbf d313 91bf
000001c0: 1db1 5f3f 296d 0fbf 9694 a43f 5e1b 513f
000001d0: 3d3b 523e 0237 9c3e c922 093f 48c4 dcbe
000001e0: 8ab8 2340 f1f6 6ebe 35ba 5cbc 4829 ee3f
000001f0: f47d fdbf f737 e63f 9882 d03d 4415 ae3e
00000200: b852 363f ef86 e3bf 4f1d b83e e13e 9a3f
00000210: 5bb7 99be 1790 e1bf 4454 223f 9062 4dbf
00000220: c95d cebf 1479 f0bf c607 0c3f 8c28 2a3f
00000230: 00db 1240 3b82 2d3f b3df da3f 524c e6bf
00000240: 552c aebf db2a 7cbf 9d1f c23f 13a3 243f
00000250: ba0a f03e dcbc d8be f55a 0d3f 8e72 c6bf
00000260: d3a3 043f b629 df3d 97c7 8a3e 111d aa3f
00000270: ca98 e03f 7430 ee3f 78be 35bf 567e 2340
00000280: 6870 d33e e14e 5ebe 13a0 57bf 7eb4 d5be
00000290: 4a47 20bf 526a 7abf 97b4 5f3f 48bb 7c3f
000002a0: d06d 9f3e f114 c33f 4f74 9a3f aaa8 e8bf
000002b0: 2a43 ccbe 0792 75bf a0a7 d8bb dc87 a0bd
000002c0: 4e7a 583f 2f63 963f 5c6b 073f 1891 cf3f
000002d0: e103 76bf 9898 133e 601d 27be 09bf b5be
000002e0: 912d dc3f bcbe 9cbe 1306 783e 4c90 ac3f
000002f0: 4014 df3d e701 8d3f e15f adbe 5c4f 723f
00000300: 3bb8 11bf a7fa 563f c8b7 e43f 606e 47be
00000310: ae34 063f 7961 ecbf bef6 3ac0 ac20 10bf
00000320: e5d9 0abf 93b4 653f 0715 62bf 8efc 083f
00000330: d822 c6bf 7379 2fbe 3485 3b3f e2f6 773d
00000340: faf5 663f 617b 863f d3de 04bf e8c1 ad3f
00000350: 13d9 703e af6d f53f 6ef9 ea3f 0d21 aa3f
00000360: 1489 78bf 8a78 a03f b664 9b3f 20b5 06bf
00000370: ecb5 5d3e 99e5 12bf 0fb9 ba3f 6edd e23f
00000380: 84dd d23f 3aaf dbbe abbd 89be bfb5 b7bf
00000390: bc1d 9f3f 7b51 a33f 28d0 c93e 7662 c63e
000003a0: d951 a1bd 65fc af3e bed7 723f a718 b1bf
000003b0: 1025 dd3f 8530 17c0 02b3 6fbf fe5b 963e
000003c0: 88b0 5a3e adf6 703f 508e bb3f 00a2 0fbf
000003d0: 841a 3fbf 3342 51be b091 66be eda8 bf39
000003e0: 865e c13e 77bc 13bf 986e 12bf dc4f 813f
000003f0: e1c3 d3bd 9c8c 96bf 36bb bcbd 5f3d 0f3f

position_emb.weight f4 [300, 128]
0.15009864 0.39708886 0.73732066 1.0540233 -0.5517495 0.787395 -1.4513379 -0.16448386
0.16871993 -0.20768254 0.4110428 1.2877463 -0.8978179 -1.0457867 0.71349114 0.19743408
-0.8243768 1.6577106 1.4850806 0.29940295 -0.08483855 2.093311 0.4755752 1.1969652
1.283596 2.434119 0.88930124 -1.3818806 1.924054 -1.2616881 -0.29064712 -2.625983
-2.2945714 -1.5866967 -0.652311 0.4691228 -1.0570304 -0.7818783 -0.945169 0.37457857
-0.3573876 -0.6222062 -0.7722325 -1.2024615 1.0557822 0.59470034 0.41248852 0.2520858
1.227299 -1.1775725 2.1171043 0.14663202 1.06273 0.74865156 0.2792598 1.3841326
-2.3864315 0.51376086 -0.08443283 0.33038804 0.2014089 1.3941952 0.8594995 -1.4075936
-1.2261509 0.23902152 0.0010656149 2.1002367 0.26387727 -0.14962235 1.7829473 0.73467475
0.17484272 -0.10556946 -0.2732234 1.3955398 1.0098156 -0.051653963 0.10780519 0.25929147
1.4243479 0.39092126 -2.0926871 0.72901225 0.5855682 -0.56447285 -0.8293152 -0.63704056
1.9730426 1.4805545 1.1754742 1.06511 1.057594 0.91495943 -0.24948926 0.7222143
-1.3126479 -0.45358387 -1.6531167 1.7202828 -0.85845196 1.6850246 1.1805986 0.17376707
1.1464063 1.6487019 -1.2671045 1.0012441 1.7321435 0.056548752 -0.2797438 -0.059646647
-0.46876046 1.3029685 0.23092893 1.1045742 -0.0051563582 -1.7315061 -1.2355857 1.4253075
0.41956198 0.87517685 1.9305062 0.7978274 -0.6475012 0.72178507 -0.3735757 -0.6372663
0.6058354 0.12425096 1.8444862 -1.3205724 -1.429269 2.93435 -0.081470765 1.2531754
-0.6306631 -0.83657986 1.639596 -0.63605255 0.96776 2.558233 -0.6892711 -2.1293035
-0.8432965 -0.07216773 -0.2698997 0.10336624 1.2517228 1.5984027 0.73640996 1.0214641
0.27034652 -0.9536348 -1.4350135 -0.067470394 -1.0118585 0.1049415 0.3593972 -0.93269897
-1.0720658 -2.2854378 -1.088713 1.6013831 -0.054363705 0.11450037 -1.6972953 1.3755835
1.1384552 0.4661412 -1.5664998 -0.051621556 0.50407016 -0.9252031 0.7073118 0.5479308
0.21529333 -0.08441767 0.12908028 1.007547 0.6325181 -0.17158815 0.72325236 -0.80488497
1.8590983 0.59006685 0.2503934 -1.7699965 -0.20889352 1.322883 -0.9590584 -0.46267077
0.475477 2.3235495 1.0048068 -1.832051 1.0225439 1.2127553 0.47796032 0.62242633
1.6568708 0.45949247 1.370157 -1.6792843 0.13229375 0.25638264 0.55443746 1.0046831
-0.09199757 0.5149152 -0.12607113 1.212704 0.06464419 -1.0916687 0.41020578 0.35867164
-0.64580214 -1.5471809 0.39736512 0.05754367 -0.07797148 0.41154304 -0.7196951 -0.19411132
-0.45187303 -0.024408258 0.98816836 0.44536838 -2.262707 1.3196537 -0.43037656 -0.39693865
-0.40950632 -0.9566342 -0.55502594 1.5486065 -1.2977427 0.4306457 -0.046884 -2.1425223
-0.5637773 -0.6754416 0.16446793 -0.81402254 -0.47238383 0.65899247 1.3576858 -1.1225353
1.4344915 -0.6674824 1.154164 -2.3773015 -0.54478633 -0.03354346 -1.6098022 0.26889488
00000000: 75b3 193e 3b4f cb3e 0cc1 3c3f 3cea 863f
00000010: 753f 0dbf b892 493f 71c5 b9bf 756e 28be
00000020: ebc4 2c3e bbaa 54be 3474 d23e dfd4 a43f
00000030: 65d7 65bf 57dc 85bf 5ba7 363f 292c 4a3e
00000040: 5c0a 53bf dc2f d43f 1f17 be3f 584b 993e
00000050: d5bf adbd cff8 0540 987e f33e 2836 993f
00000060: e04c a43f 9bc8 1b40 3fa9 633f 77e1 b0bf
00000070: 6747 f63f ff7e a1bf b3cf 94be 1b10 28c0
00000080: 42da 12c0 e118 cbbf dbfd 26bf dd30 f03e
00000090: c64c 87bf 2d29 48bf 98f6 71bf c3c8 bf3e
000000a0: 82fb b6be e848 1fbf 07b1 45bf 42ea 99bf
000000b0: df23 873f 483e 183f b231 d33e 6411 813e
000000c0: 2218 9d3f b2ba 96bf a37e 0740 b426 163e
000000d0: 8907 883f a1a7 3f3f 24fb 8e3e 422b b13f
000000e0: 4bbb 18c0 d585 033f 1feb acbd 9f28 a93e
000000f0: 223e 4e3e fd74 b23f 2908 5c3f 072c b4bf
00000100: 83f2 9cbf 0fc2 743e 1aac 8b3a 476a 0640
00000110: ec1a 873e 9a36 19be 9e37 e43f a513 3c3f
00000120: f809 333e cd34 d8bd f0e3 8bbe 0ca1 b23f
00000130: a341 813f 1b93 53bd f8c8 dc3d dac1 843e
00000140: 0851 b63f d526 c83e 96ee 05c0 8ca0 3a3f
00000150: cce7 153f 4b81 10bf 004e 54bf 1715 23bf
00000160: a98c fc3f cf82 bd3f f075 963f 8655 883f
00000170: 3d5f 873f c83a 6a3f 1d7a 7fbe 09e3 383f
00000180: d904 a8bf 253c e8be 5499 d3bf 3a32 dc3f
00000190: 82c3 5bbf e3ae d73f db1d 973f ffef 313e
000001a0: 71bd 923f aa08 d33f 7b30 a2bf c428 803f
000001b0: e1b6 dd3f aa9f 673d 943a 8fbe 0b50 74bd
000001c0: 5f01 f0be acc7 a63f a278 6c3e b062 8d3f
000001d0: abf6 a8bb fea1 ddbf ac27 9ebf 7a70 b63f
000001e0: d4d0 d63e 970b 603f d41a f73f 6b3e 4c3f
000001f0: a3c2 25bf e8c6 383f 5045 bfbe e223 23bf
00000200: 0718 1b3f 4a77 fe3d 2018 ec3f 8408 a9bf
00000210: 49f2 b6bf 64cc 3b40 25da a6bd 0d68 a03f
00000220: 2373 21bf 192a 56bf 48de d13f 57d4 22bf
00000230: 1fbf 773f 17ba 2340 1274 30bf 8246 08c0
00000240: 48e2 57bf adcc 93bd 4b30 8abe aeb1 d33d
00000250: 7438 a03f 7698 cc3f 5d85 3c3f 56bf 823f
00000260: dc6a 8a3e 6921 74bf 86ae b7bf eb2d 8abd
00000270: 9484 81bf 92eb d63d e902 b83e 5cc5 6ebf
00000280: 7439 89bf 9d44 12c0 f35a 8bbf 1ffa cc3f
00000290: 7aac 5ebd 2c7f ea3d f940 d9bf 1f13 b03f
000002a0: e6b8 913f 0faa ee3e 1183 c8bf 2071 53bd
000002b0: be0a 013f 1cda 6cbf 6312 353f 3145 0c3f
000002c0: db75 5c3e 2ce3 acbd 9f2d 043e 4df7 803f
000002d0: b5ec 213f ceb4 2fbe 1127 393f f10c 4ebf
000002e0: eff6 ed3f 9f0e 173f 9033 803e 3f8f e2bf
000002f0: 2fe8 55be 3b54 a93f da84 75bf 2fe3 ecbe
00000300: b971 f33e 09b5 1440 829d 803f a680 eabf
00000310: b8e2 823f 913b 9b3f 37b7 f43e 5557 1f3f
00000320: 5814 d43f 9942 eb3e 4e61 af3f caf2 d6bf
00000330: 0378 073e 9644 833e 9def 0d3f 7599 803f
00000340: 3969 bcbd 7cd1 033f ca18 01be e239 9b3f
00000350: 2c64 843d cdbb 8bbf 7e06 d23e cfa3 b73e
00000360: 4a53 25bf 060a c6bf 7173 cb3e e9b2 6b3d
00000370: 83af 9fbd c5b5 d23e f03d 38bf 1ec5 46be
00000380: e75b e7be d4f3 c7bc 9af8 7c3f 5307 e43e
00000390: 31d0 10c0 6aea a83f 515a dcbe 8b3b cbbe
000003a0: d0aa d1be fbe5 74bf 2e16 0ebf bd38 c63f
000003b0: 6f1c a6bf 987d dc3e 7009 40bd 161f 09c0
000003c0: b653 10bf bee9 2cbf 486a 283e c863 50bf
000003d0: 4bdc f1be bbb3 283f a6c8 ad3f 3daf 8fbf
000003e0: 6b9d b73f 20e0 2abf a5bb 933f b525 18c0
000003f0: 1e77 0bbf de64 09bd 000e cebf 97ac 893e

bilstm.weight_ih_l0 f4 [400, 128]
-0.091323175 0.07885508 -0.050741863 -0.018961804 0.07329912 0.10425811 0.047762718 0.011178725
-0.079241894 0.078933895 -0.012765439 0.03671074 -0.047911964 0.062491614 -0.03126224 -0.030932393
-0.08565701 0.061249647 -0.019758644 0.10133817 -0.016962148 0.011239695 -0.0014973165 -0.014159603
0.06774852 -0.015942182 -0.07115339 0.0051262495 0.08229482 0.022384413 0.021082735 -0.080045916
-0.016731462 -0.032001276 0.043865796 -0.009329542 -0.0013131435 -0.059571717 0.06447662 0.10761821
0.08055953 0.023673024 0.038562305 -0.08301948 -0.10848463 0.059613734 -0.008886 0.0053520654
0.0070321714 -0.07634547 0.00100407 -0.09935971 -0.07148408 -0.10105643 -0.021032862 0.059870023
-0.06465773 0.07593011 0.02545029 -0.097449504 0.030863313 -0.052361686 0.049061984 0.028707342
-0.010415116 0.02051082 -0.011267152 -0.04252458 -0.023294235 0.08754134 -0.03298441 0.09062346
-0.04917013 -0.08199751 0.066774875 -0.026750455 0.06650417 -0.077608354 0.05209438 -0.064860396
-0.043498486 0.060949024 -0.03280347 -0.07787059 0.055229217 0.08915143 0.09235872 0.037918642
0.017981814 0.06370899 0.0055959467 0.08477292 0.06857861 -0.07013685 -0.05679758 0.05904594
-0.004706437 -0.03697136 0.009483275 0.011662348 0.09225519 -0.04344347 -0.088943206 -0.0465294
-0.028372 0.0368735 0.09740127 0.05582751 -0.038419865 -0.06230082 0.011753907 0.05317204
-0.07389812 -0.007690629 0.017698044 -0.08761146 -0.084077016 -0.07811088 0.05444646 0.097690776
-0.07036314 0.11429328 0.083671115 -0.0271226 0.070087805 -0.07660123 -0.07895191 -0.017382726
-0.049362548 0.009365867 -0.071353026 -0.10260265 -0.027176157 -0.07408166 -0.041187566 -0.018715376
0.013145071 0.0992063 -0.018278616 -0.05417786 -0.046253376 0.0855193 -0.06940186 0.028797487
0.045237113 -0.007386867 0.07935543 -0.042670395 -0.052482985 0.07543184 -0.082064986 -0.009374963
0.026146136 -0.041524768 0.04437267 -0.058567066 0.028579278 -0.055435337 0.11159836 0.03285241
0.042128567 -0.054711074 0.044624835 0.0592996 -0.059677254 -0.08144665 0.0462557 0.051424388
0.05873028 -0.10679841 0.018890347 -0.05045733 0.06573892 0.035512436 0.03392893 0.043681372
-0.039845396 -0.066409215 0.06300395 -0.017949885 -0.08334312 0.08413997 0.09982852 -0.090572886
0.03512055 -0.053577386 -0.015979528 0.034981813 0.041649573 0.046548944 -0.05608706 0.049162365
-0.03268047 -0.050140273 0.0007024796 -0.011134046 0.022764986 0.081614375 -0.07636078 0.03403496
-0.009512761 -0.075665794 -0.076310076 0.056460563 0.044521518 0.07896833 0.036148176 0.08298761
0.013071951 -0.059706017 -0.03676567 0.030869462 0.03933476 0.09478342 0.09123518 -0.08100834
-0.021366853 -0.061846204 -0.0747236 0.09256206 0.013851187 -0.065165475 -0.0651036 -0.05255356
-0.096264906 0.0793119 -0.09200697 -0.023392338 -0.06877592 0.059530117 -0.05211034 -0.048327602
0.0029210374 0.07440316 0.012795302 0.07413755 -0.08949948 -0.035767395 0.036684774 -0.09086844
0.01622269 -0.008873963 0.05455586 -0.0945504 -0.044122618 -0.047182325 0.08515708 -0.035874914
-0.06673097 0.00802924 0.075378224 0.012470768 0.078972235 0.020845195 0.02772608 -0.045787323
00000000: a507 bbbd c67e a13d b3d6 4fbd c955 9bbc
00000010: d91d 963d 4785 d53d d7a2 433d f926 373c
00000020: 9349 a2bd 18a8 a13d 2226 51bc 005e 163d
00000030: 563f 44bd 35f7 7f3d d60c 00bd ee65 fdbc
00000040: f16c afbd e9e0 7a3d e1dc a1bc 638a cf3d
00000050: 34f4 8abc b326 383c 9b41 c4ba aefd 67bc
00000060: bcbf 8a3d 2e99 82bc deb8 91bd 19fa a73b
00000070: 308a a83d 845f b73c b3b5 ac3c 1def a3bd
00000080: 6b10 89bc c513 03bd 9fac 333d efda 18bc
00000090: c91d acba 7901 74bd 510c 843d f066 dc3d
000000a0: 65fc a43d eeed c13c 82f3 1d3d 1e06 aabd
000000b0: 312d debd 882d 743d 9696 11bc 6160 af3b
000000c0: 216e e63b 045b 9cbd 009b 833a 1b7d cbbd
000000d0: 3f66 92bd acf6 cebd 1c4d acbc 453a 753d
000000e0: 466b 84bd 3f81 9b3d 207d d03c 9b93 c7bd
000000f0: 0fd5 fc3c 3579 56bd 38f5 483d a92b eb3c
00000100: 2aa4 2abc 4f06 a83c dc99 38bc 412e 2ebd
00000110: 8dd3 bebc e048 b33d a91a 07bd cb98 b93d
00000120: 9e66 49bd 4fee a7bd 44c1 883d c523 dbbc
00000130: 5733 883d 21f1 9ebd eb60 553d 87d5 84bd
00000140: 782b 32bd afa5 793d ee5c 06bd 9e7a 9fbd
00000150: 0838 623d 0695 b63d 9226 bd3d 9450 1b3d
00000160: 994e 933c dc79 823d 345e b73b 6d9d ad3d
00000170: f172 8c3d e9a3 8fbd 94a4 68bd 28da 713d
00000180: 7438 9abb 486f 17bd bd5f 1b3c 6f13 3f3c
00000190: 4af0 bc3d c8f1 31bd db27 b6bd 9d95 3ebd
000001a0: 666c e8bc ab08 173d 517a c73d 63ab 643d
000001b0: 265e 1dbd 252f 7fbd 7693 403c edca 593d
000001c0: e657 97bd ac01 fcbb 7dfb 903c a36d b3bd
000001d0: 9230 acbd 99f8 9fbd 4003 5f3d 1a12 c83d
000001e0: 8d1a 90bd 9812 ea3d c35b ab3d 3730 debc
000001f0: 328a 8f3d 1be1 9cbd 8ab1 a1bd 3866 8ebc
00000200: 6230 4abd 4b73 193c 8921 92bd 5721 d2bd
00000210: 88a0 debc 20b8 97bd 4bb4 28bd fd50 99bc
00000220: 6d5e 573c ac2c cb3d 09bd 95bc 9be9 5dbd
00000230: 2e74 3dbd be24 af3d 9022 8ebd b5e8 eb3c
00000240: 8d4a 393d 880d f2bb 1a85 a23d 27c7 2ebd
00000250: 66f8 56bd 027c 9a3d b011 a8bd 7299 19bc
00000260: 6c30 d63c e015 2abd 1ec0 353d 05e4 6fbd
00000270: 171f ea3c 2a10 63bd ae8d e43d 4090 063d
00000280: 018f 2c3d b818 60bd 88c8 363d 23e4 723d
00000290: 2370 74bd 80cd a6bd 9e76 3d3d 61a2 523d
000002a0: 298f 703d 20b9 dabd eebf 9a3c 58ac 4ebd
000002b0: 20a2 863d 7d75 113d 10f9 0a3d 3deb 323d
000002c0: ed34 23bd 8e01 88bd 3708 813d a30b 93bc
000002d0: ccaf aabd 9451 ac3d e572 cc3d 477e b9bd
000002e0: 91da 0f3d f673 5bbd 80e7 82bc 1749 0f3d
000002f0: be98 2a3d 1baa 3e3d 8cbb 65bd 7a5e 493d
00000300: f5db 05bd e35f 4dbd 9c26 383a 936b 36bc
00000310: a37d ba3c 7025 a73d 0a63 9cbd 3e68 0b3d
00000320: 69db 1bbc abf6 9abd 7548 9cbd 3143 673d
00000330: 325c 363d 26ba a13d 1c10 143d 68f5 a93d
00000340: bd2b 563c 4c8e 74bd 9997 16bd f4e1 fc3c
00000350: 7c1d 213d cf1d c23d 83d9 ba3d b3e7 a5bd
00000360: 8a09 afbc 7252 7dbd b008 99bd 2d91 bd3d
00000370: 17f0 623c 7a75 85bd 0955 85bd 6742 57bd
00000380: 8926 c5bd 476e a23d 266e bcbd 4aa1 bfbc
00000390: 64da 8cbd dad5 733d a771 55bd 2af3 45bd
000003a0: e06e 3f3b af60 983d 63a3 513c 6ed5 973d
000003b0: 814b b7bd d580 12bd c642 163d 3c19 babd
000003c0: 72e5 843c 1964 11bc f775 5f3d a4a3 c1bd
000003d0: ebb9 34bd 4142 41bd d666 ae3d 93f1 12bd
000003e0: 3faa 88bd 138d 033c e65f 9a3d 3152 4c3c
000003f0: 32bc a13d 8bc3 aa3c ce21 e33c 7d8b 3bbd

bilstm.weight_hh_l0 f4 [400, 100]
-0.06272981 -0.08632269 -0.041585695 -0.026010484 -0.007385549 0.0601831 0.088186085 0.07198354
0.0617927 -0.02794693 -0.10015903 0.009721581 0.026604453 0.014819891 -0.015602432 -0.0068981634
0.06928457 -0.037816294 0.023982786 -0.0037307711 0.046436813 0.027523758 0.0628985 -0.078841954
0.09415816 0.09601061 0.0042734537 -0.023747103 0.04900835 -0.044952612 -0.015437704 -0.036199145
-0.08936375 -0.0852809 0.09073649 -0.0018343595 -0.005793865 0.08311934 -0.06798734 0.01337745
-0.098881125 0.07146588 0.02213289 0.021377511 -0.08279863 0.0077112177 -0.057438396 0.029109737
0.06828393 -0.0076046046 0.09362597 0.07064598 0.020170644 0.027845187 -0.0839071 -0.026680412
0.05615756 -0.027386699 0.0908047 -0.095729105 0.064135924 -0.06261293 -0.03551325 -0.0979883
0.0293746 0.03391258 0.03563137 0.07726676 -0.06876771 -0.018204289 -0.08338671 0.03691041
0.06236798 -0.0734623 0.0985446 0.08182691 -0.019787533 -0.028989347 -0.014377228 0.09473889
0.09319076 -0.06832458 -0.01879687 0.015620477 0.018970678 -0.061096743 0.07582269 -0.077062204
0.028127272 0.04434213 0.056309804 0.022487346 0.09343457 -0.08247256 0.09474884 -0.025672663
0.029734658 0.09305088 -0.029107666 -0.060316186 -0.07565572 -0.099125735 0.024121044 -0.009399731
0.07565273 0.05978964 -0.063162915 0.07631218 -0.035760667 0.07500145 -0.025066046 0.088439435
-0.005383302 0.02260061 0.021804567 0.07976225 0.016588343 0.03288521 -0.040868774 -0.008751064
0.0739115 0.061919525 0.08405892 0.09350487 0.02247303 0.06363451 0.09096421 -0.063578464
0.047425807 -0.05028445 -0.06829901 0.031390253 0.050032396 0.0014493588 0.08977433 0.07209875
-0.08014187 -0.06341725 0.07399013 0.07744764 0.097396255 0.07662937 0.008959586 -0.024958715
-0.02272528 0.094672814 -0.033211 -0.09741896 -0.053617414 -0.085966595 0.07284623 -0.06465508
-0.04928655 0.06860722 -0.024962965 -0.023079395 0.019146651 0.055580553 -0.06313635 0.030940793
-0.0064491476 -0.07768311 0.04779166 -0.0018757042 0.08735662 0.020913182 -0.012889427 -0.08665398
-0.07927495 -0.075442635 -0.050834958 -0.09458599 -0.08771131 0.07651913 -0.01412009 -0.07047304
-0.05589256 -0.03335958 0.033808284 0.0707146 0.07747628 -0.053893115 -0.08559537 0.04053678
0.053444084 0.078914665 0.08264626 -0.075582795 -0.014016631 -0.009652223 -0.010440365 -0.089046806
0.090422705 -0.009480761 -0.07025439 -0.074943304 0.009271481 0.020284036 0.039988846 0.09843474
-0.065567136 0.074535355 -0.014815021 -0.047966212 0.04980392 0.018992407 0.09151111 0.0026338396
-0.046359837 0.10325804 0.0031544066 0.018386718 0.05254003 0.026183246 -0.09161634 0.030889235
-0.05289918 -0.002045761 -0.055717006 -0.079999425 -0.015467604 0.05887167 0.07797975 0.06591095
0.010395002 0.048023675 -0.025220724 0.015776105 0.08624698 0.046029966 -0.030393587 -0.05146089
0.09413077 -0.00011170053 -0.027383404 0.09311613 0.09119853 -0.09460265 0.016018217 0.012477442
0.07669695 0.047924664 -0.087571286 0.06862697 0.10471339 0.023446908 -0.0005869138 -0.049030427
0.02800456 0.06540233 0.021892214 0.07267178 -0.037547946 -0.07331383 0.0019678546 0.072041646
00000000: 7d78 80bd f3c9 b0bd c355 2abd f013 d5bc
00000010: 7a02 f2bb 8e82 763d e89a b43d 1b6c 933d
00000020: 581a 7d3d f6f0 e4bc 2d20 cdbd 4447 1f3c
00000030: 95f1 d93c 21cf 723c 58a1 7fbc fd09 e2bb
00000040: 12e5 8d3d 42e5 1abd 8c77 c43c f47f 74bb
00000050: 8734 3e3d 8179 e13c eed0 803d e477 a1bd
00000060: fed5 c03d 36a1 c43d 5408 8c3b 4989 c2bc
00000070: fbbc 483d 3b20 38bd 6cee 7cbc 8e45 14bd
00000080: 5704 b7bd c1a7 aebd 0ed4 b93d e46e f0ba
00000090: 76da bdbb 793a aa3d f23c 8bbd 182d 5b3c
000000a0: 3082 cabd b45c 923d 0950 b53c e41f af3c
000000b0: 5492 a9bd 62ae fc3b 8644 6bbd 8b77 ee3c
000000c0: 72d8 8b3d 0c30 f9bb f9be bf3d d7ae 903d
000000d0: e83c a53c 971b e43c 7cd7 abbd e190 dabc
000000e0: 7805 663d 125a e0bc d1f7 b93d 9f0d c4bd
000000f0: b259 833d 353b 80bd 5776 11bd 17ae c8bd
00000100: 00a3 f03c ebe7 0a3d 33f2 113d 093e 9e3d
00000110: 16d6 8cbd 2921 95bc a7c6 aabd 5f2f 173d
00000120: 9175 7f3d 6773 96bd c0d1 c93d de94 a73d
00000130: 7719 a2bc 117b edbc 778e 6bbc 7706 c23d
00000140: ccda be3d c2ed 8bbd e5fb 99bc 07ed 7f3c
00000150: 6568 9b3c 9440 7abd ed48 9b3d cad2 9dbd
00000160: 2a6b e63c 18a0 353d 1ca5 663d 6237 b83c
00000170: a05a bf3d 60e7 a8bd ae0b c23d 7a4f d2bc
00000180: 1996 f33c 7691 be3d 3373 eebc 1b0e 77bd
00000190: 63f1 9abd 6f02 cbbd 7f99 c53c 5401 1abc
000001a0: d2ef 9a3d fbe5 743d 8f5b 81bd 8f49 9c3d
000001b0: c779 12bd 5c9a 993d 4f57 cdbc bc1f b53d
000001c0: 6966 b0bb ea24 b93c 7e9f b23c 645a a33d
000001d0: 47e4 873c a4b2 063d 0466 27bd 9f60 0fbc
000001e0: ea5e 973d 549f 7d3d 1527 ac3d 7b7f bf3d
000001f0: 5c19 b83c cf52 823d 724b ba3d 6d35 82bd
00000200: 9041 423d 11f7 4dbd 5ae0 8bbd 1193 003d
00000210: c5ee 4c3d 69f8 bd3a 9bdb b73d 82a8 933d
00000220: 6c21 a4bd e7e0 81bd 2388 973d de9c 9e3d
00000230: b077 c73d dcef 9c3d 3acb 123c 3876 ccbc
00000240: 5e2a babc d2e3 c13d 4208 08bd 9783 c7bd
00000250: ef9d 5bbd 410f b0bd 6730 953d e269 84bd
00000260: b2e0 49bd f181 8c3d 227f ccbc 0011 bdbc
00000270: 70d9 9c3c 6fa8 633d a14d 81bd 8c77 fd3c
00000280: 5f53 d3bb 5318 9fbd 30c1 433d 30da f5ba
00000290: 07e8 b23d 1f52 ab3c 2d2e 53bc a477 b1bd
000002a0: e85a a2bd ab81 9abd 5138 50bd 4db6 c1bd
000002b0: fda1 b3bd 10b6 9c3d f357 67bc 2b54 90bd
000002c0: 99ef 64bd 0ea4 08bd 8e7a 0a3d d1d2 903d
000002d0: e2ab 9e3d 07bf 5cbd a04c afbd e509 263d
000002e0: 2fe8 5a3d 039e a13d 7142 a93d 27cb 9abd
000002f0: 03a6 65bc 5c24 1ebc 110e 2bbc 2c5e b6bd
00000300: 8a2f b93d 3255 1bbc 89e1 8fbd e07b 99bd
00000310: 69e7 173c b52a a63c 58cb 233d 2798 c93d
00000320: 1048 86bd fea5 983d b4ba 72bc 3878 44bd
00000330: 32ff 4b3d f795 9b3c 2d6a bb3d 7f9c 2c3b
00000340: d0e3 3dbd f478 d33d 29ba 4e3b be9f 963c
00000350: 3734 573d 3f7e d63c 59a1 bbbd 6c0b fd3c
00000360: d0ac 58bd 2d12 06bb 8437 64bd bdd6 a3bd
00000370: d56b 7dbc 6c23 713d d9b3 9f3d 52fc 863d
00000380: cc4f 2a3c 79b4 443d b19b cebc e43c 813c
00000390: 42a2 b03d eb89 3c3d f9fb f8bc a7c8 52bd
000003a0: a2c7 c03d c440 eab8 2953 e0bc abb3 be3d
000003b0: 4bc6 ba3d 09bf c1bd a338 833c 2f6e 4c3c
000003c0: 4a13 9d3d a74c 443d 9358 b3bd 4c8c 8c3d
000003d0: f973 d63d bb13 c03c 1edb 19ba 21d4 48bd
000003e0: d269 e53c a8f1 853d 4d57 b33c f1d4 943d
000003f0: e0cb 19bd 9025 96bd 1ff7 003b 928a 933d

bilstm.bias_ih_l0 f4 [400]
-0.009682392 -0.038103253 -0.060070965 -0.08468391 -0.04589696 -0.030856261 0.016813785 -0.06816382
-0.019931713 -0.05009838 0.05277736 0.07460783 -0.029009689 0.008814082 0.08683576 0.09424604
0.05826379 -0.0038871597 0.07099109 0.01611321 0.027601605 0.108109005 0.08908264 -0.06264737
0.11220871 -0.037745733 0.07458638 0.011738649 0.02603937 -0.03088638 0.029530268 0.03781465
0.062752314 0.09708613 0.06186486 0.06507919 -0.011048483 0.09915373 0.101357564 -0.0072523532
-0.020072041 0.10700082 -0.002617617 -0.035428897 0.011850171 -0.0021163374 0.092785366 0.020373411
-0.074292175 -0.0429574 0.06040814 -0.009783279 0.06331738 0.052225795 -0.04979429 -0.06677779
0.03797094 -0.0794917 0.07028071 -0.09005544 0.040469255 -0.08447392 -0.023676805 0.011341707
-0.06114388 0.06135211 -0.04083912 0.058199205 -0.036977176 0.0752431 -0.0026907476 0.085958175
-0.03918367 0.05823614 0.052728966 0.08719154 -0.027949097 0.041167706 -0.016488655 -0.039968107
0.0436927 0.078429446 0.023723183 0.08616536 0.08661918 0.08010131 -0.05489857 0.07635109
-0.005037895 -0.0050911903 -0.0096774185 -0.07121554 -0.008346942 0.05561817 0.07428866 0.11797056
-0.052555837 -0.06245098 -0.078586444 -0.015520964 -0.05850512 -0.077589944 0.10193114 -0.021165654
-0.09350584 0.08306785 0.10112761 -0.055358775 -0.0077405614 -0.07222113 -0.0404417 0.08678822
-0.064132854 -0.044161625 -0.02269866 -0.06665928 -0.03597209 0.08763315 -0.07601958 0.040869296
-0.05442018 -0.040458452 0.024593124 0.013446157 0.08838904 0.074720666 0.06810311 0.029542632
0.023346473 -0.013692796 0.0030012564 0.025114678 -0.08975701 0.06990257 0.10347491 0.024554893
0.09397391 -0.0723369 0.012181044 -0.016400402 -0.015014137 0.10292941 0.10506016 -0.06663566
-0.024915548 0.09267681 -0.06937933 0.08214592 0.057992697 0.0056284512 -0.010254849 -0.028944341
0.08325125 -0.029753245 0.054823726 -0.04088893 -0.05903529 -0.0642622 0.010752418 0.037786666
-0.09793073 0.061350204 0.018753817 0.015253951 0.04796343 -0.054211996 -0.08213753 -0.07770111
0.08149023 0.07501388 0.008479314 0.04460197 0.03579948 0.074070245 -0.092858456 0.070738174
-0.07515505 -0.094788775 0.0652176 -0.0385981 0.0046529365 -0.09166074 0.043989904 0.04316932
-0.05493706 0.044671804 0.062190846 -0.0324058 -0.09097147 -0.038116917 -0.0016895295 -0.04906873
-0.068229504 -0.095084935 -0.023297084 -0.07868356 -0.07485677 0.091228984 -0.06841631 -0.050571106
-0.03495896 -0.067169234 -0.09619944 0.09031067 0.012319757 -0.030262008 -0.06329928 0.06725885
0.043834433 -0.023833541 -0.11257999 0.020683983 -0.06019166 -0.10595076 -0.071675174 -0.06907403
0.043037277 0.042245604 0.034311183 0.06352146 -0.11091532 0.035418313 0.008821747 -0.012883205
-0.10321465 -0.06509322 -0.015927196 0.12317333 -0.050172057 0.06666697 0.09078854 0.02657536
-0.061960176 0.073939145 -0.09685225 0.072380394 0.06255919 0.041485045 0.01862076 -0.03623681
0.048953027 0.034964055 -0.104003 0.10980173 -0.033881586 -0.11108659 0.029754676 0.1106744
-0.036303487 0.079952136 -0.054487992 0.035781022 0.057201136 0.08665451 -0.08003371 -0.0155644575
00000000: e5a2 1ebc 2812 1cbd f90c 76bd c26e adbd
00000010: 73fe 3bbd 45c6 fcbc 10bd 893c 7999 8bbd
00000020: d547 a3bc f533 4dbd 132d 583d fdcb 983d
00000030: baa5 edbc f068 103c f2d6 b13d 1104 c13d
00000040: 03a6 6e3d b8bf 7ebb c763 913d daff 833c
00000050: c31c e23c 4168 dd3d f670 b63d 444d 80bd
00000060: aecd e53d 459b 1abd bec0 983d 7653 403c
00000070: 8450 d53c 6f05 fdbc 76e9 f13c 89e3 1a3d
00000080: 4984 803d 18d5 c63d 0266 7d3d 3d48 853d
00000090: b204 35bc 1c11 cb3d 8e94 cf3d 26a5 edbb
000000a0: 1f6e a4bc 3f23 db3d 538c 2bbb e41d 11bd
000000b0: 3827 423c 40b2 0abb 4106 be3d 24e6 a63c
000000c0: 7f26 98bd 19f4 2fbd 876e 773d 0c4a 20bc
000000d0: 8bac 813d b7ea 553d 19f5 4bbd cbc2 88bd
000000e0: 6b87 1b3d 8bcc a2bd 55ef 8f3d fd6e b8bd
000000f0: 17c3 253d aa00 adbd dcf5 c1bc 91d2 393c
00000100: 0172 7abd 5a4c 7b3d ec46 27bd 4a62 6e3d
00000110: 6175 17bd 0e19 9a3d 4157 30bb d70a b03d
00000120: 0e7f 20bd 0589 6e3d 54fa 573d 7a91 b23d
00000130: 81f5 e4bc 789f 283d 3713 87bc 99b5 23bd
00000140: 1ef7 323d 9e9f a03d 1f57 c23c 7777 b03d
00000150: 6665 b13d 280c a43d 53dd 60bd f65d 9c3d
00000160: ed14 a5bb 00d4 a6bb 098e 1ebc 74d9 91bd
00000170: 9dc1 08bc e1cf 633d a724 983d 8d9a f13d
00000180: ca44 57bd 99cc 7fbd eef1 a0bd a44b 7ebc
00000190: 11a3 6fbd 7ae7 9ebd 46c1 d03d 9863 adbc
000001a0: fd7f bfbd 7a1f aa3d fe1b cf3d e2bf 62bd
000001b0: 89a4 fdbb ace8 93bd 32a6 25bd 06be b13d
000001c0: 1658 83bd d2e2 34bd 8af2 b9bc a984 88bd
000001d0: 7857 13bd 0279 b33d 27b0 9bbd 9066 273d
000001e0: b2e7 5ebd c3b7 25bd 8577 c93c 454d 5c3c
000001f0: 5005 b53d 2607 993d a579 8b3d 6403 f23c
00000200: 1a41 bf3c c057 60bc bab0 443b 4cbd cd3c
00000210: 86d2 b7bd 1429 8f3d a7ea d33d 5827 c93c
00000220: 6575 c03d 5e25 94bd 0093 473c 235a 86bc
00000230: dbfd 75bc a8cc d23d c829 d73d 4778 88bd
00000240: b11b ccbc 57cd bd3d c016 8ebd 1f3c a83d
00000250: c089 6d3d df6e b83b f403 28bc af1c edbc
00000260: a27f aa3d 14bd f3bc d88e 603d 277b 27bd
00000270: fdce 71bd e69b 83bd e92a 303c 31c6 1a3d
00000280: e88f c8bd 5a4a 7b3d 9ba1 993c b5eb 793c
00000290: 4d75 443d 660d 5ebd b937 a8bd c221 9fbd
000002a0: 5ae4 a63d e1a0 993d d2ec 0a3c 8eb0 363d
000002b0: 7aa2 123d 24b2 973d 932c bebd 2ddf 903d
000002c0: e4ea 99bd 9e20 c2bd ce90 853d 0b19 1ebd
000002d0: a977 983b a0b8 bbbd c22e 343d 50d2 303d
000002e0: af05 61bd c8f9 363d d4bb 7e3d f2bb 04bd
000002f0: 404f babd 7c20 1cbd 3473 ddba 4bfc 48bd
00000300: e9bb 8bbd e4bb c2bd 87d9 bebc d924 a1bd
00000310: 824e 99bd 43d6 ba3d da1d 8cbd a623 4fbd
00000320: 2031 0fbd 0690 89bd 3604 c5bd cdf4 b83d
00000330: ced8 493c 08e8 f7bc 0ea3 81bd 02bf 893d
00000340: bc8b 333d 8f3e c3bc 5690 e6bd 7571 a93c
00000350: 888b 76bd b6fc d8bd 6fca 92bd af76 8dbd
00000360: db47 303d ba09 2d3d e289 0c3d 8a17 823d
00000370: 9227 e3bd cb12 113d 1789 103c 1414 53bc
00000380: 3462 d3bd 984f 85bd c079 82bc 4d42 fc3d
00000390: 3781 4dbd b188 883d 58ef b93d 92b4 d93c
000003a0: f4c9 7dbd 686d 973d 795a c6bd 2c3c 943d
000003b0: 081f 803d 39ec 293d 908a 983c 0d6d 14bd
000003c0: f882 483d 7836 0f3d 86ff d4bd bbdf e03d
000003d0: 6bc7 0abd 5e81 e3bd 14c0 f33c 43a9 e23d
000003e0: f7b2 14bd f2bd a33d cd2e 5fbd 1f8f 123d
000003f0: bd4b 6a3d eb77 b13d b7e8 a3bd 1102 7fbc

bilstm.bias_hh_l0 f4 [400]
-0.06122925 0.0528979 0.11373122 0.083544806 0.037362937 -0.017153282 -0.06563392 -0.048196465
-0.055548873 0.04562623 -0.015919724 0.047013775 0.11148229 0.05702611 -0.047175232 -0.0070862467
0.11567329 0.051972013 0.05535514 -0.08502923 0.017614523 0.064100936 0.09428516 0.045292467
-0.04341828 0.047836684 0.119136155 -0.023968771 -0.010261248 0.035594672 -0.08340672 0.013697428
0.061075553 0.03688172 -0.026896227 -0.033514913 0.12467298 -0.02587207 -0.000112727656 -0.047414213
-0.005002489 -0.024063192 0.08660336 -0.0190777 -0.049621508 -0.06462258 0.063602604 -0.05920579
-0.024812764 -0.05348222 -0.053680822 0.014177164 -0.052731015 0.10618236 -0.014574504 -0.07222758
-0.06504278 -0.01511847 -0.057024486 0.097386375 -0.034230065 0.10350268 0.07892959 0.046614822
-0.030424725 -0.001827759 0.022074388 0.11663779 0.067117445 -0.075206846 -0.043052983 0.023503182
-0.067020796 0.08366661 0.062901355 -0.021136623 0.113275185 0.03792377 -0.010158756 0.097862154
0.097716704 0.08948898 -0.052301526 0.088469364 0.10871762 0.0017196699 0.0101219425 0.05513609
-0.04532389 -0.04743442 -0.029009886 0.008026132 0.02858954 -0.034816436 -0.0065739495 0.03649428
0.04974388 0.041381173 0.089548424 0.03668247 0.02728012 0.10532179 0.09612419 -0.05402198
-0.09356239 -0.07762816 0.10727503 -0.086208604 -0.07487691 0.08934216 0.08014867 0.096289136
-0.06830604 0.023299461 -0.085869275 -0.055525124 0.0342485 0.09534103 -0.036416944 0.0038438549
0.043269504 0.016541246 -0.08443955 0.0053555034 0.036758337 -0.0042961803 0.038319148 -0.06954328
0.008590485 0.034823295 -0.01298267 0.0050554853 -0.018251648 -0.058849398 -0.01867281 -0.011592393
0.019100487 -0.06800694 0.02827134 -0.07283855 -0.039861694 0.08863115 -0.017638668 0.024891308
0.023836736 -0.08671851 0.07496163 0.020779828 -0.091531195 -0.012827145 0.07173455 -0.020407936
0.008303187 0.0087833535 -0.014726235 -0.026800865 0.045534648 0.019352192 0.09196119 -0.039883114
-0.099115945 -0.0572579 0.05887606 0.041177027 0.018162807 -0.019423716 -0.0022729621 0.04472774
-0.018858325 0.075288884 0.016468653 -0.023469409 -0.004401333 -0.03794569 0.095447235 -0.027456189
-0.023054926 0.038953025 0.06370365 -0.033608537 0.054267835 -0.081768245 -0.073193714 -0.0015040799
0.049422447 -0.07900084 -0.015216637 -0.016035192 0.080117464 0.017786449 0.051207248 -0.07340757
0.10927154 -0.037366945 -0.092883915 0.05989266 0.03722887 -0.0832103 -0.0033734415 0.07192502
-0.056684207 0.029282367 -0.07989465 0.0036809635 0.104067996 0.076046 0.02170626 0.026824096
-0.049858816 0.009067169 -0.029785665 0.043341435 -0.11073081 0.052115846 0.04670933 0.00027439557
-0.0062057185 0.0062859 -0.03681062 -0.041982297 -0.034881394 0.020948598 -0.03775154 0.0021378829
0.08908334 0.01983924 0.044511072 -0.037519146 -0.048590362 0.052174687 0.029124308 0.039645795
0.00035137127 -0.012381926 -0.07343226 -0.009230859 -0.047308482 0.04027718 -0.0982042 0.031150395
0.029105246 0.028248947 0.018175026 0.042116363 0.104314744 -0.094885185 -0.078757554 0.09334833
0.086760946 0.08782505 -0.05488339 0.06264517 -0.04610011 0.044797957 0.07367511 0.0066157384
00000000: 86cb 7abd 78ab 583d eaeb e83d 8a19 ab3d
00000010: e109 193d 0a85 8cbc 146b 86bd a869 45bd
00000020: 3787 63bd 92e2 3a3d 156a 82bc 8491 403d
00000030: d450 e43d 3694 693d d13a 41bd bf33 e8bb
00000040: 1ee6 ec3d 9be0 543d 12bc 623d ce23 aebd
00000050: 554c 903c 5a47 833d 9418 c13d 9884 393d
00000060: 5ed7 31bd 66f0 433d a8fd f33d 285a c4bc
00000070: cb1e 28bc b8cb 113d 24d1 aabd 2d6b 603c
00000080: 5c2a 7a3d 4911 173d 7a55 dcbc ef46 09bd
00000090: 8c54 ff3d aaf1 d3bc 3368 ecb8 6835 42bd
000000a0: ebeb a3bb 2c20 c5bc 1a5d b13d d648 9cbc
000000b0: ec3f 4bbd d858 84bd 1542 823d c581 72bd
000000c0: 2344 cbbc 2c10 5bbd 6ce0 5bbd 5647 683c
000000d0: 7afc 57bd 2376 d93d e7c9 6ebc 0eec 93bd
000000e0: 2635 85bd 76b3 77bc 8292 69bd 8272 c73d
000000f0: d334 0cbd 37f9 d33d d6a5 a13d 2fef 3e3d
00000100: 463d f9bc 6a91 efba 59d5 b43c cbdf ee3d
00000110: df74 893d 0c06 9abd 5358 30bd bf89 c03c
00000120: 3342 89bd 6659 ab3d 6dd2 803d b626 adbc
00000130: d2fc e73d f455 1b3d e970 26bc f46b c83d
00000140: b21f c83d 0046 b73d 203a 56bd 6d2f b53d
00000150: 58a7 de3d 8c66 e13a 81d6 253c 61d6 613d
00000160: 8ba5 39bd 984a 42bd 24a6 edbc 0a80 033c
00000170: 9c34 ea3c ae9b 0ebd 496a d7bb 077b 153d
00000180: 3dc0 4b3d 4e7f 293d 2a65 b73d 5c40 163d
00000190: 8f7a df3c f3b2 d73d c2dc c43d 2746 5dbd
000001a0: a39d bfbd 83fb 9ebd 03b3 db3d 238e b0bd
000001b0: 1159 99bd 06f9 b63d fc24 a43d 3d33 c53d
000001c0: 09e4 8bbd 83de be3c 3bdc afbd 506e 63bd
000001d0: 2848 0c3d 2842 c33d ef29 15bd 2fe9 7b3b
000001e0: 5d3b 313d 8281 873c a5ee acbd 387d af3b
000001f0: e98f 163d f9c6 8cbb 8af4 1c3d b56c 8ebd
00000200: 1bbf 0c3c dfa2 0e3d 44b5 54bc 7ca8 a53b
00000210: 7b84 95bc 110c 71bd b9f7 98bc 05ee 3dbc
00000220: a078 9c3c 3947 8bbd 4c99 e73c 612c 95bd
00000230: 0446 23bd 4084 b53d f87e 90bc dbe8 cb3c
00000240: 4245 c33c 7999 b1bd 7c85 993d 753a aa3c
00000250: b574 bbbd f228 52bc 90e9 923d 8b2e a7bc
00000260: 170a 083c 0ee8 0f3c 4e46 71bc 7d8d dbbc
00000270: 8a82 3a3d 7d88 9e3c 2656 bc3d 7a5c 23bd
00000280: 4dfd cabd 4287 6abd 0628 713d 3ea9 283d
00000290: 2bca 943c 7c1e 9fbc faf5 14bb 6f34 373d
000002a0: c67c 9abc 0f31 9a3d 45e9 863c eb42 c0bc
000002b0: 0f39 90bb f16c 1bbd d779 c33d cdeb e0bc
000002c0: afdd bcbc 358d 1f3d 0f77 823d 1ba9 09bd
000002d0: f347 5e3d 1c76 a7bd 96e6 95bd 8c24 c5ba
000002e0: 316f 4a3d 31cb a1bd 344f 79bc 3c5c 83bc
000002f0: a014 a43d e3b4 913c b1be 513d b556 96bd
00000300: c2c9 df3d 150e 19bd ec39 bebd 0152 753d
00000310: 4d7d 183d 296a aabd f514 5dbb 6d4d 933d
00000320: b32d 68bd 93e1 ef3c ce9f a3bd 523c 713b
00000330: 9a21 d53d 01be 9b3d 54d1 b13c 35be db3c
00000340: c238 4cbd 778e 143c 1101 f4bc ca86 313d
00000350: d6c6 e2bd 6d77 553d 4852 3f3d c0dc 8f39
00000360: 5759 cbbb f3f9 cd3b bcc6 16bd a1f5 2bbd
00000370: cbdf 0ebd 659c ab3c 5ca1 1abd b91b 0c3b
00000380: 5371 b63d e785 a23c 3e51 363d adad 19bd
00000390: b006 47bd 20b5 553d 1a96 ee3c a163 223d
000003a0: 4138 b839 90dd 4abc a763 96bd 073d 17bc
000003b0: 8ac6 41bd aff9 243d 491f c9bd 1d2f ff3c
000003c0: 206e ee3c 566a e73c cbe3 943c 3582 2c3d
000003d0: f8a2 d53d 2a53 c2bd a44b a1bd 692d bf3d
000003e0: b9af b13d 9fdd b33d 68cd 60bd 1c4c 803d
000003f0: 78d3 3cbd 107e 373d fae2 963d d6c8 d83b

bilstm.weight_ih_l0_reverse f4 [400, 128]
0.017857762 0.002631816 -0.042016644 0.10079854 -0.08108643 0.027088415 -0.03628312 -0.0899515
0.013786499 -0.019418307 0.024322903 0.077722766 -0.10425014 0.020645233 -0.082538664 -0.056735065
-0.03943151 -0.08355519 0.06251126 0.07390766 0.09965101 0.028246162 -0.014231916 -0.060862336
-0.020817837 -0.09731985 -0.009806337 0.051126353 -0.0113626635 -0.06127994 0.098896675 0.00848525
0.07209325 -0.06527851 -0.015545564 0.021031855 0.09569405 0.014363838 -0.07789371 -0.06578198
-0.07900495 0.094130345 0.075445265 0.03150721 0.018417504 0.0646925 -0.0056301993 0.10209353
0.026805453 0.064967476 0.050760824 0.08411851 -0.03264092 0.0010269302 -0.065324485 0.079189025
-0.021688133 0.017137362 0.0030607085 -0.08889698 0.08887464 -0.06022569 0.03507814 -0.08929218
0.0889312 0.069778584 0.06448325 -0.027333017 0.027007863 -0.005533779 0.062263228 0.046101484
-0.028010983 -0.009999283 -0.071131565 -0.049066577 -0.021230021 0.05885375 0.022966342 0.08455772
0.030975068 0.081641525 0.0096055465 -0.019461235 0.09535285 -0.0789078 0.08869704 0.0032085106
0.084301986 -0.032958377 0.07572884 0.07143754 -0.022260075 0.059354477 -0.103255495 0.06567565
-0.0004266957 -0.03042854 -0.04820588 -0.032168653 -0.09791172 -0.07911636 0.006618751 -0.021926023
-0.028520755 -0.07192572 0.010521978 -0.08813071 0.052320614 0.07128458 -0.096686974 -0.012829694
0.066299774 0.09344593 0.042184535 -0.025579108 -0.046401426 0.033471666 0.016436677 -0.08758119
-0.0707041 0.05475714 0.083344676 0.08641374 -0.079658695 0.023332383 -0.062012784 -0.05896293
-0.016582603 0.036516663 0.05746052 0.06624935 -0.038323507 0.024749123 -0.059573356 0.09616021
-0.0016206802 -0.0085795475 0.046793275 0.050855923 0.03297577 -0.028761491 -0.059490997 -0.041787412
0.0132427635 -0.068357706 -0.033710547 0.051939864 0.0059000715 0.053757835 0.036689382 0.060111847
-0.0664545 -0.08846095 -0.022001436 -0.06342149 -0.03919218 0.045042444 -0.08982778 0.050990377
-0.07375428 -0.04412077 -0.08183428 0.00097428175 -0.0062530837 -0.039375808 -0.01595814 -0.052073505
0.00043829638 -0.037088573 -0.06429808 0.03135374 -0.014771782 -0.057788264 0.08658942 0.045399077
0.056387514 0.009971357 0.019187784 -0.04550499 -0.039896548 0.0025548162 -0.07059221 0.09745585
-0.0065334984 0.05919149 0.019728668 -0.07766123 -0.005279359 -0.1079676 -0.05790365 -0.08813126
-0.0026248822 0.100098245 -0.100432225 0.02067023 -0.09666465 -0.013290124 -0.032015562 0.08943632
-0.02699072 0.085811324 0.037340526 0.01812098 0.07355637 0.09215662 -0.09278418 0.027228441
0.04787618 0.07100894 -0.016452823 -0.0888833 0.08471562 -0.0055882595 0.029069746 0.06736915
-0.03763216 -0.013602051 -0.036491085 -0.10103989 0.0041957833 0.05065293 0.057827312 -0.07442133
0.08767154 -0.08960048 0.084111534 -0.035240814 0.009211019 -0.045378007 -0.0512751 -0.06330863
-0.01816671 -0.062871054 -0.060772203 0.07241537 0.07763461 0.08751827 0.043315805 -0.06331569
0.016547808 0.04772359 0.02116107 -0.017872809 -0.041792043 -0.010648004 0.07407295 0.049968634
0.03521988 -0.07111564 0.092098676 -0.056262646 0.039956775 0.0749692 -0.022261895 0.041220844
00000000: 714a 923c 8c7a 2c3b a519 2cbd 776f ce3d
00000010: a410 a6bd 86e8 dd3c 9c9d 14bd 7e38 b8bd
00000020: c5e0 613c 2413 9fbc d340 c73c 1d2d 9f3d
00000030: 1981 d5bd 3120 a93c 080a a9bd 0763 68bd
00000040: ef82 21bd fc1e abbd e705 803d e65c 973d
00000050: d415 cc3d 7f64 e73c fb2c 69bc c94a 79bd
00000060: 2b8a aabc a14f c7bd c2aa 20bc de69 513d
00000070: 772a 3abc ad00 7bbd 578a ca3d b805 0b3c
00000080: a0a5 933d bdb0 85bd d2b2 7ebc ff4a ac3c
00000090: 3efb c33d 4e56 6b3c bd86 9fbd b4b8 86bd
000000a0: 59cd a1bd 69c7 c03d 0c83 9a3d b40d 013d
000000b0: 4ee0 963c 807d 843d 897d b8bb 6a16 d13d
000000c0: 1c97 db3c ab0d 853d 95ea 4f3d 5346 ac3d
000000d0: 7cb2 05bd 0f9a 863a d8c8 85bd db2d a23d
000000e0: 50ab b1bc a763 8c3c 2b96 483b 9f0f b6bd
000000f0: e803 b63d 37af 76bd 19ae 0f3d d2de b6bd
00000100: 9021 b63d 13e8 8e3d cb0f 843d 7ee9 dfbc
00000110: 983f dd3c b454 b5bb ba07 7f3d e9d4 3c3d
00000120: 4a77 e5bc 08d4 23bc 6dad 91bd 09fa 48bd
00000130: 95ea adbc a110 713d e923 bc3c 992c ad3d
00000140: 6dbf fd3c ac33 a73d 9560 1d3c 2b6d 9fbc
00000150: 5b48 c33d 6a9a a1bd cba6 b53d e045 523b
00000160: 85a6 ac3d 5dff 06bd b917 9b3d d84d 923d
00000170: c35a b6bc ae1d 733d 9e77 d3bd f580 863d
00000180: 21b6 dfb9 4645 f9bc 8773 45bd 47c3 03bd
00000190: f185 c8bd c207 a2bd 1ce2 d83b 349e b3bc
000001a0: 5ca4 e9bc cb4d 93bd 6064 2c3c e07d b4bd
000001b0: 244e 563d a6fd 913d d203 c6bd a333 52bc
000001c0: 2dc8 873d 9460 bf3d b1c9 2c3d 478b d1bc
000001d0: 6c0f 3ebd 9619 093d 36a6 863c c45d b3bd
000001e0: 50cd 90bd 0649 603d 9db0 aa3d b0f9 b03d
000001f0: 1924 a3bd 8e23 bf3c 1e01 7ebd 1d83 71bd
00000200: 3dd8 87bc 7f92 153d b95b 6b3d bdad 873d
00000210: 1cf9 1cbd acbe ca3c 3103 74bd a5ef c43d
00000220: 016d d4ba 3b91 0cbc 4eaa 3f3d 4d4e 503d
00000230: 9a11 073d 389d ebbc d5ac 73bd 4729 2bbd
00000240: 2df8 583c 20ff 8bbd 1214 0abd e5be 543d
00000250: 6355 c13b 2d31 5c3d 9b47 163d d737 763d
00000260: 4c19 88bd 042b b5bd 5b3c b4bc 20e3 81bd
00000270: fb87 20bd 6d7e 383d a1f7 b7bd 49db 503d
00000280: 7c0c 97bd fbb7 34bd bb98 a7bd f166 7f3a
00000290: abe6 ccbb 8748 21bd a5ba 82bc 074b 55bd
000002a0: 25cb e539 30ea 17bd b6ae 83bd c76c 003d
000002b0: 5805 72bc 63b3 6cbd cb55 b13d 62f4 393d
000002c0: 98f6 663d e75e 233c b32f 9d3c 7163 3abd
000002d0: 906a 23bd b46e 273b a692 90bd ef96 c73d
000002e0: f516 d6bb c772 723d 049e a13c da0c 9fbd
000002f0: 79fe acbb 1e1e ddbd 612c 6dbd 297e b4bd
00000300: 3706 2cbb 4f00 cd3d 69af cdbd 9d54 a93c
00000310: 1ef8 c5bd d2be 59bc c022 03bd 642a b73d
00000320: a41b ddbc d9bd af3d 61f2 183d 7372 943c
00000330: b9a4 963d 9cbc bc3d a205 bebd 2e0e df3c
00000340: d019 443d 236d 913d 12c8 86bc 7308 b6bd
00000350: 627f ad3d b81d b7bb ad23 ee3c d6f8 893d
00000360: 2e24 1abd 23db 5ebc ad77 15bd 00ee cebd
00000370: c87c 893b 7279 4f3d 55dc 6c3d 366a 98bd
00000380: 238d b33d 7580 b7bd ab42 ac3d ac58 10bd
00000390: d0e9 163c 4ade 39bd d705 52bd f4a7 81bd
000003a0: 5ad2 94bc 8ac2 80bd 46ec 78bd 824e 943d
000003b0: e5fe 9e3d c73c b33d ea6b 313d a8ab 81bd
000003c0: 458f 873c d079 433d fb59 ad3c ff69 92bc
000003d0: 222e 2bbd f774 2ebc 8fb3 973d e9ab 4c3d
000003e0: b942 103d 14a5 91bd 3b9e bc3d a973 66bd
000003f0: b7a9 233d 7489 993d 945e b6bc 30d7 283d

bilstm.weight_hh_l0_reverse f4 [400, 100]
0.018475095 0.04174062 -0.00013115226 0.087398954 0.01660711 0.047830347 -0.02211017 -0.04429082
-0.039008588 -0.059858557 0.06818021 0.067438714 0.062346164 -0.04813412 0.024343073 0.092398666
-0.0031366216 0.04670588 -0.07974656 -0.099364765 -0.04039794 0.057113424 -0.06971686 -0.045934618
0.018195935 0.06867544 0.016279278 0.023847902 0.042195134 -0.05315803 0.0959865 0.06734597
-0.055698916 0.079969674 0.026295865 -0.008970463 0.0501562 0.07340705 0.08864084 0.061113186
-0.0427691 -0.023087777 -0.0975378 0.042852532 0.051286194 -0.094680876 -0.0098895 -0.017128257
0.03144504 0.004511737 -0.07362669 0.007566524 -0.018183975 -0.056702957 -0.07038377 -0.08113267
-0.03445667 0.08551593 -0.08177838 -0.055959046 -0.03499463 0.062184162 0.033557393 0.08863541
0.07487446 0.076539785 0.030925496 -0.037902266 0.0818078 0.062297743 -0.04539742 0.009485569
-0.010174363 -0.08185039 -0.027542641 -0.008371082 0.015130699 0.023608051 -0.059916478 -0.0077604987
0.06700541 -0.057660952 0.020538582 0.036608357 -0.073756136 -0.020684559 0.08584209 -0.03942392
-0.02098904 -0.06811707 0.058419023 -0.03684349 0.028454605 -0.09897964 -0.08568982 -0.0800086
-0.09814198 -0.05760262 0.06526264 0.044798054 0.04600257 0.014335853 0.01442466 -0.0832727
0.017968858 -0.07677867 -0.007050367 0.09822185 0.006680689 0.04066826 -0.07945259 0.02143369
0.093015976 -0.006652118 0.014618386 0.023204224 0.08116199 -0.036509316 0.083606526 0.09015463
-0.0033900558 0.0902416 -0.01171789 0.016783787 -0.07175184 0.08402856 0.017556606 -0.012917042
-0.01840981 -0.0088939825 -0.08611177 0.04304469 0.029984523 0.065457776 -0.09338614 -0.08161147
-0.0741452 -0.024407735 -0.030735886 -0.0014431677 0.097697906 -0.009028988 0.033853 -0.039546598
-0.060423706 -0.08625662 -0.08902718 -0.049374074 0.05718525 0.07541801 0.031968247 0.028426912
0.050651394 0.05969506 0.023135412 0.024836017 0.0073093064 -0.04485242 -0.01666341 0.014648255
0.018721975 -0.056329392 0.065676264 0.04159278 0.05734038 -0.030732905 -0.09429686 0.079382725
0.04935193 0.041814756 -0.0556077 -0.04437747 -0.08268552 -0.030817783 -0.060976546 -0.07482547
0.08527642 0.027827987 0.0054252185 -0.023534533 -0.02882624 -0.07314346 -0.049099635 0.021636503
0.012007828 -0.084264725 0.046964966 0.058246266 0.04012911 -0.025491618 -0.053054646 0.10081431
0.09583601 -0.056525104 0.056840222 -0.07783232 -0.0645539 -0.02566163 -0.09338901 -0.095124885
0.033690028 -0.028308243 0.05059454 -0.05505086 0.0002835247 0.035521396 0.08021916 -0.073526636
-0.080523804 0.08413343 -0.09888681 -0.040478874 -0.05807569 -0.04935112 0.054334406 0.004765609
-0.012733776 -0.07294002 0.037784237 0.09411059 -0.024945822 -0.0232156 0.02439033 -0.093849316
-0.01929999 -0.04366141 0.03799579 -0.019704219 0.04664047 0.069962025 0.007183206 -0.06615072
0.08574433 0.020660538 -0.056736246 0.09013841 0.02918236 0.06647246 0.09053172 0.020034645
0.100485295 -0.05830067 0.061135154 -0.061153557 -0.09081665 -0.08989922 0.09634703 0.053783096
0.09567243 -0.09410965 -0.032225035 -0.080519214 0.036612228 -0.018718032 0.023653802 0.04427145
00000000: 1559 973c 36f8 2a3d eb85 09b9 39fe b23d
00000010: a20b 883c c1e9 433d 6320 b5bc 4a6a 35bd
00000020: 78c7 1fbd 3f2e 75bd 11a2 8b3d 4f1d 8a3d
00000030: b15e 7f3d 4828 45bd 206b c73c 833b bd3d
00000040: c78f 4dbb aa4e 3f3d 2a52 a3bd c17f cbbd
00000050: 4f78 25bd c4ef 693d b7c7 8ebd f025 3cbd
00000060: a40f 953c b6a5 8c3d 1f5c 853c ad5c c33c
00000070: ced4 2c3d 3cbc 59bd 9294 c43d afec 893d
00000080: 8c24 64bd 24c7 a33d 6d6a d73c d9f8 12bc
00000090: 9670 4d3d 6f56 963d 5489 b53d d251 7a3d
000000a0: a72e 2fbd 9422 bdbc e6c1 c7bd 2386 2f3d
000000b0: 7911 523d 0ce8 c1bd 9207 22bc 8f50 8cbc
000000c0: 84cc 003d 31d7 933b 97c9 96bd 9bf0 f73b
000000d0: 8ff6 94bc 5c41 68bd 5e25 90bd e328 a6bd
000000e0: 7022 0dbd fa22 af3d 6c7b a7bd 5035 65bd
000000f0: 8756 0fbd d2b4 7e3d 7a73 093d 7b86 b53d
00000100: c857 993d e4c0 9c3d 7757 fd3c 683f 1bbd
00000110: d98a a73d eb2b 7f3d a5f2 39bd 5c69 1b3c
00000120: 5fb2 26bc 2da1 a7bd 1ba1 e1bc dd26 09bc
00000130: c0e6 773c ac65 c13c fb6a 75bd c84b febb
00000140: 223a 893d e42d 6cbd 8740 a83c a5f2 153d
00000150: 750d 97bd aa72 a9bc facd af3d fa7a 21bd
00000160: 35f1 abbc f680 8bbd c948 6f3d 33e9 16bd
00000170: a219 e93c d6b5 cabd 257e afbd 8ddb a3bd
00000180: aafe c8bd baf0 6bbd 6ba8 853d 2a7e 373d
00000190: 316d 3c3d ede0 6a3c 6955 6c3c e18a aabd
000001a0: 6d33 933c 233e 9dbd c406 e7bb 8a28 c93d
000001b0: aee9 da3b c393 263d 0ab8 a2bd b595 af3c
000001c0: 297f be3d 03fa d9bb f481 6f3c c916 be3c
000001d0: 4238 a63d cb8a 15bd e639 ab3d fea2 b83d
000001e0: b32b 5ebb 97d0 b83d 65fc 3fbc 277e 893c
000001f0: a1f2 92bd 2a17 ac3d dfd2 8f3c 00a2 53bc
00000200: 2bd0 96bc 11b8 11bc 5e5b b0bd a14f 303d
00000210: 1aa2 f53c ba0e 863d 3c41 bfbd ea23 a7bd
00000220: 70d9 97bd bbf2 c7bc d3c9 fbbc ac28 bdba
00000230: d715 c83d 52ee 13bc 71a9 0a3d 9dfb 21bd
00000240: d97e 77bd 50a7 b0bd e253 b6bd 783c 4abd
00000250: 153b 6a3d c274 9a3d 23f1 023d 8edf e83c
00000260: d677 4f3d cf82 743d 7a86 bd3c e774 cb3c
00000270: e882 ef3b 2cb7 37bd b481 88bc 3cff 6f3c
00000280: d45e 993c a6b9 66bd 4781 863d 315d 2a3d
00000290: bfdd 6a3d 93c3 fbbc b61e c1bd 6993 a23d
000002a0: 4025 4a3d f345 2b3d e6c4 63bd 26c5 35bd
000002b0: 0757 a9bd 9375 fcbc 8bc2 79bd 193e 99bd
000002c0: 67a5 ae3d 85f7 e33c 08c6 b13b 7ecb c0bc
000002d0: 0225 ecbc 3dcc 95bd b31c 49bd 093f b13c
000002e0: 7bbc 443c fc92 acbd 565e 403d a393 6e3d
000002f0: 6c5e 243d ccd3 d0bc d44f 59bd bc77 ce3d
00000300: ac45 c43d de86 67bd 4bd1 683d 8d66 9fbd
00000310: d634 84bd 5738 d2bc bd42 bfbd d6d0 c2bd
00000320: 8efe 093d b0e6 e7bc 383c 4f3d 037d 61bd
00000330: 0ba6 9439 e27e 113d f149 a43d 2295 96bd
00000340: aae9 a4bd 264e ac3d 2b85 cabd 2dcd 25bd
00000350: c6e0 6dbd 6624 4abd c18d 5e3d d328 9c3b
00000360: 54a1 50bc 9461 95bd a5c3 1a3d 0ebd c03d
00000370: 2e5b ccbc a42e bebc 3bce c73c 1234 c0bd
00000380: 031b 9ebc 4fd6 32bd 79a1 1b3d be6a a1bc
00000390: 140a 3f3d 4048 8f3d 1961 eb3b 077a 87bd
000003a0: b99a af3d 4a40 a93c 4464 68bd 7d9a b83d
000003b0: d80f ef3c b722 883d b268 b93d b21f a43c
000003c0: 3ccb cd3d afcc 6ebd db68 7a3d 277c 7abd
000003d0: 14fe b9bd 151d b8bd 9751 c53d aa4b 5c3d
000003e0: e8ef c33d 8fbc c0bd 66fe 03bd 42e7 a4bd
000003f0: b4f6 153d 8f56 99bc 9ec5 c13c fb55 353d
